best_model.pth (torch, 60987 bytes, 4 tensors)

freq_upsampler_real.weight f4 [85, 85]
0	0x3dc73d64	0.09728506
1	0xb6345fa0	-2.6877751e-06
2	0xb8a56b2d	-7.887776e-05
3	0x386f6b19	5.7081783e-05
4	0x3857aa6e	5.141872e-05
5	0xb8234002	-3.892184e-05
6	0xb8e07882	-0.00010703599
7	0xb8e1f29b	-0.00010774025
8	0xb9d694d2	-0.0004092814
9	0xb9120dce	-0.00013928788
10	0xb90fe94b	-0.00013724451
11	0xb9fc26d8	-0.00048094126
12	0x38a0e905	7.672798e-05
13	0xb986152d	-0.0002557425
14	0x393079ee	0.0001683009
15	0xba230e89	-0.00062201225
16	0xb9bdf115	-0.0003622851
17	0xb7946588	-1.7690254e-05
18	0x3a1ce2bd	0.00059847144
19	0x396a5dc2	0.00022350907
20	0xb6d98f5d	-6.4837936e-06
21	0xb9da10ae	-0.00041592628
22	0xb9a219b2	-0.00030918192
23	0xb9fd64cb	-0.00048331017
24	0x39cf72d1	0.00039567662
25	0xb9a38dcf	-0.00031195438
26	0xb9d37251	-0.00040330229
27	0xb8d30514	-0.0001006221
28	0xb99033aa	-0.00027504313
29	0xb9c0cfb1	-0.00036775836
30	0x3936e2d0	0.00017441367
31	0x3a481158	0.0007631979
32	0xbb1e55ef	-0.0024160107
33	0xba65fa52	-0.00087729574
34	0xb90d201e	-0.00013458772
35	0xb9b5273a	-0.00034552236
36	0xb9decf13	-0.00042497422
37	0x3931d794	0.00016960345
38	0x3a149020	0.0005667228
39	0xb890d924	-6.906901e-05
40	0x398f4aee	0.00027330912
41	0x37b38cc2	2.1404008e-05
42	0x3883aa0f	6.278243e-05
43	0xb9bb33f8	-0.0003570614
44	0xb9da888e	-0.0004168194
45	0x380f7878	3.4206052e-05
46	0xba61535d	-0.0008595491
47	0x392edcf0	0.00016676239
48	0x381646f2	3.582886e-05
49	0xba38cebd	-0.00070498494
50	0xb8e6aefd	-0.00010999849
51	0x39a86df9	0.00032125393
52	0x393dff51	0.00018119557
53	0x39e48297	0.00043584846
54	0xb964e5d1	-0.00021829388
55	0x38d2a4b7	0.00010044261
56	0xb997e509	-0.0002897161
57	0xba17e0c3	-0.0005793685
58	0xb96360fb	-0.00021684535
59	0x39bf0ed3	0.00036441404
60	0x39c6b73d	0.00037902026
61	0xb9c9d620	-0.00038497243
62	0xbacef4f0	-0.001578955
63	0xb9b68e1e	-0.0003481963
64	0x3b4d92e3	0.003136807
65	0x39a60211	0.00031663527
66	0xba529be2	-0.00080340926
67	0x3a10c87b	0.0005523038
68	0x3a1972b1	0.0005853577
69	0xba15335f	-0.0005691554
70	0xb5f5f1a2	-1.8324247e-06
71	0xba061576	-0.0005114892
72	0x3a2f27f7	0.00066816754
73	0xba2c731e	-0.0006578433
74	0x3a4b1b4c	0.0007747903
75	0x37a3f6b7	1.9546e-05
76	0x3a941a8e	0.0011299418
77	0xba393287	-0.0007064719
78	0xba1ab9e2	-0.00059023325
79	0x398d4dc0	0.00026951544
80	0xbc007e9e	-0.007842688
81	0x3b1f3197	0.0024291032
82	0xb991ab3c	-0.00027784135
83	0x3a156286	0.000569858
84	0xb8e97575	-0.00011132184
85	0x3db4813e	0.088137135
86	0x3f7ffcae	0.99994934
87	0xb6b1e40c	-5.301559e-06
88	0x38c3474f	9.311607e-05
89	0x371b5116	9.257599e-06
90	0xb88d2a34	-6.731265e-05
91	0xb723ee7e	-9.771085e-06
92	0xb90ede53	-0.00013624998
93	0xb915307b	-0.00014227808
94	0xb8a7bca5	-7.998318e-05
95	0xb8abe566	-8.196644e-05
96	0xb93fdd31	-0.0001829758
97	0x37b13eeb	2.1129343e-05
98	0xb9271e2f	-0.00015937605
99	0xb7ad46d6	-2.0656193e-05
100	0xb98cf7ae	-0.00026887417
101	0xb75d32b5	-1.3184433e-05
102	0xb97554a5	-0.00023396553
103	0x396bfe62	0.00022506111
104	0x387f589a	6.0879254e-05
105	0x3996bec2	0.00028752355
106	0xb923f243	-0.00015635141
107	0xb9b9b524	-0.0003542091
108	0xb7ee5487	-2.8411172e-05
109	0x39569f65	0.0002046801
110	0x3725756e	9.862108e-06
111	0xb90f69ff	-0.0001367703
112	0xb881fffb	-6.1988794e-05
113	0xb9930338	-0.00028040423
114	0x3969d155	0.00022298594
115	0x3888f8cc	6.5313274e-05
116	0xb9492ed0	-0.00019186293
117	0xb948e453	-0.00019158544
118	0x3a0d6655	0.0005393972
119	0x389324cb	7.0163595e-05
120	0xb898782c	-7.2703086e-05
121	0xb9d0e0f9	-0.0003984047
122	0x39fc342c	0.00048104057
123	0x3998d776	0.0002915223
124	0x381fc0cd	3.8088114e-05
125	0xb871d169	-5.7653906e-05
126	0x39b56829	0.00034600616
127	0x389d00de	7.486505e-05
128	0xb916560a	-0.00014337167
129	0xb92d5c42	-0.00016532934
130	0xb97f0e80	-0.00024324097
131	0xb901ff1b	-0.00012397433
132	0x370f6695	8.547348e-06
133	0xb9702784	-0.00022902904
134	0x3a65781c	0.00087535544
135	0x39e0c1a7	0.00042868892
136	0x395afeea	0.00020885063
137	0x3962694b	0.00021592264
138	0x38ef4f8a	0.000114112234
139	0x38e697eb	0.000109955516
140	0x38fc5167	0.00012031459
141	0x370ee814	8.5178945e-06
142	0x37f2cab0	2.8943032e-05
143	0x37cb6a5b	2.4249011e-05
144	0x397a134f	0.00023849051
145	0x39fc49f4	0.00048120285
146	0x38f2ad8a	0.000115717834
147	0xb939cd3e	-0.00017719434
148	0x3a0b5002	0.00053143513
149	0xb7857768	-1.5910438e-05
150	0x397d10a1	0.00024134155
151	0x39080f2e	0.00012975626
152	0x39528162	0.0002007536
153	0x3a4fbc8b	0.00079245184
154	0xb95c6396	-0.00021017934
155	0x385f6a1d	5.326617e-05
156	0xb903d3f1	-0.00012572088
157	0x39ae06f7	0.00033193055
158	0xb6d99224	-6.484117e-06
159	0x39d96c63	0.0004147022
160	0x3947214c	0.00018990523
161	0x3a49f28b	0.0007703683
162	0x395d0d2d	0.00021081111
163	0x39e02c4a	0.00042757607
164	0x39afe45c	0.00033548742
165	0x3a112904	0.0005537423
166	0x3b09fae0	0.0021054074
167	0xba54a3cc	-0.0008111566
168	0xb9e1374c	-0.00042956544
169	0xb94fbfb6	-0.00019812476
170	0x3dc011cf	0.09378397
171	0xb7213641	-9.60898e-06
172	0x3f7ff7ab	0.99987286
173	0xb7fb2bbe	-2.99419e-05
174	0x38e68895	0.00010992695
175	0xb89bd463	-7.430536e-05
176	0xb8de160d	-0.00010589892
177	0xb92a9b0f	-0.00016270227
178	0xb78c4edd	-1.6726024e-05
179	0xb8a76b52	-7.9831705e-05
180	0xb890d86d	-6.9067675e-05
181	0xb8842c51	-6.302505e-05
182	0xb8f6931c	-0.00011757595
183	0xb8c9b682	-9.6184216e-05
184	0x3893876f	7.034733e-05
185	0xb938ef8e	-0.00017636848
186	0x3881ef0b	6.1957246e-05
187	0x38c69fcd	9.471141e-05
188	0xba1f1bac	-0.0006069492
189	0xb8ab683b	-8.17333e-05
190	0x3888b828	6.519287e-05
191	0xb933f4aa	-0.00017161915
192	0xb9787898	-0.00023696048
193	0xb859980f	-5.1878447e-05
194	0x3808b652	3.2594726e-05
195	0xb82b8b76	-4.089946e-05
196	0xb96610ba	-0.0002194074
197	0xb9c076d9	-0.00036709642
198	0x38688e7a	5.5445802e-05
199	0x382238c6	3.8676684e-05
200	0xb929ae54	-0.00016182038
201	0xb901c011	-0.00012373949
202	0xb8af85c9	-8.36957e-05
203	0x3955bf7f	0.00020384601
204	0x38d5576f	0.00010172917
205	0xb9cc0b2a	-0.0003891823
206	0xb9315339	-0.00016911038
207	0x3910ee86	0.00013821767
208	0x38852e89	6.350602e-05
209	0xb8af947f	-8.37231e-05
210	0xb98b0d46	-0.00026522035
211	0x394eca54	0.00019721064
212	0x387bb4e9	6.001155e-05
213	0xb8fd5f63	-0.00012081747
214	0xb9c9ce3b	-0.0003849136
215	0xb91ec737	-0.00015142268
216	0x379b3693	1.8502853e-05
217	0xb90c2d55	-0.00013368328
218	0xb98b7fe3	-0.0002660743
219	0xb8179886	-3.6143254e-05
220	0x3a3bf7e1	0.0007170421
221	0x3a211364	0.0006144552
222	0x38e6ea80	0.00011010934
223	0x39b3a5ba	0.00034265016
224	0x38baafcd	8.9019166e-05
225	0x39571c41	0.00020514523
226	0x362dc527	2.5893767e-06
227	0xb937d92c	-0.00017533143
228	0xb907c1ff	-0.00012946872
229	0x3883cf8a	6.285224e-05
230	0x39ab1224	0.00032629177
231	0xb98a74f1	-0.0002640854
232	0xb92b2e3f	-0.00016325059
233	0x391cc493	0.00014950549
234	0xb86303cb	-5.412455e-05
235	0x38d681aa	0.00010228467
236	0xba15c8ad	-0.0005713802
237	0x3912a311	0.00013984392
238	0x3a54a73d	0.00081120786
239	0xb9891a2d	-0.0002615018
240	0x396b25da	0.00022425447
241	0xb87498de	-5.8316502e-05
242	0x399c51a5	0.0002981547
243	0x38f80b5c	0.000118276774
244	0x3940815c	0.00018358737
245	0x37bbc898	2.2385546e-05
246	0x39854fef	0.00025427292
247	0x3907bd49	0.00012945117
248	0xb991ab3f	-0.00027784143
249	0xb8c53658	-9.403814e-05
250	0xb84431cc	-4.677642e-05
251	0xba28fabc	-0.0006446054
252	0xb86e6d8f	-5.6845656e-05
253	0x3aa21157	0.0012364787
254	0x3a53a9d5	0.0008074318
255	0xbca04e70	-0.019568652

freq_upsampler_real.bias f4 [85]
0	0xbc97be9e	-0.01852351
1	0x3b9fb220	0.004873529
2	0x3ab5db0d	0.0013874486
3	0x3aa2dc20	0.0012425222
4	0x39f4808d	0.00046635084
5	0xbacb7d0b	-0.0015524937
6	0xbb62b17a	-0.0034590648
7	0xb9caf03b	-0.00038707428
8	0xbb3268fa	-0.0027223215
9	0xbbbd0450	-0.0057683364
10	0xbb617657	-0.0034402811
11	0xbb9bb703	-0.0047520413
12	0x3b7d1b29	0.0038620925
13	0xbb363988	-0.0027805287
14	0x39cb9dbc	0.00038836699
15	0xbc55ed7e	-0.013057111
16	0xbcfef520	-0.031122744
17	0xbba9b9b8	-0.00517961
18	0xbc32f217	-0.0109219765
19	0xbc2a5544	-0.0103963055
20	0xbc1f7f86	-0.009734994
21	0xbc1accf7	-0.0094482815
22	0xbbf5a3a1	-0.0074963127
23	0xbbdbd122	-0.00670828
24	0xbb6c5ab7	-0.0036064812
25	0xbbc6a6fc	-0.0060623866
26	0xbc012dd5	-0.007884462
27	0xbb2c5ab8	-0.002629919
28	0xbc1eff47	-0.009704418
29	0xbc280c5f	-0.010256856
30	0xbb90959f	-0.0044123675
31	0xbb9adf9c	-0.0047263633
32	0xbd668f66	-0.0562891
33	0xbc1f0e55	-0.009708007
34	0xbc732ffb	-0.014842982
35	0xbca3bb77	-0.019986851
36	0xbcacda76	-0.021100264
37	0xbc838053	-0.0160524
38	0xbc9806d8	-0.01855795
39	0xbc667754	-0.014066536
40	0xbc1bbff6	-0.009506216
41	0xbc1b5fff	-0.0094833365
42	0xbbe20a43	-0.006898196
43	0xbb838d4c	-0.0040146466
44	0xbbb48f21	-0.0055102264
45	0xbc4688e7	-0.012117601
46	0xbc7116fe	-0.014714954
47	0xbcaeec4c	-0.02135291
48	0xbd844561	-0.064585455
49	0xbae9a3ac	-0.0017825267
50	0xbb2ef1c6	-0.0026694401
51	0xbc1e827f	-0.009674667
52	0xbc025f7f	-0.007957338
53	0xbbb5ab4f	-0.005544103
54	0xbc523a85	-0.012831335
55	0xbc098c5f	-0.0083952835
56	0xbc5eb99d	-0.013594058
57	0xbc68282c	-0.014169734
58	0xbcade10c	-0.021225475
59	0xbca4169e	-0.020030316
60	0xbcacaff6	-0.021079998
61	0xbcade6b7	-0.021228177
62	0xbcd3a954	-0.025837578
63	0xbc6f50e5	-0.014606689
64	0xbca23d8b	-0.019804737
65	0xbcbed24c	-0.023293637
66	0xbcaa5b23	-0.02079541
67	0xbc9b30ed	-0.018944228
68	0xbbdd5a37	-0.006755139
69	0xbc90769c	-0.017634682
70	0xbcc23e96	-0.023711484
71	0xbc899cef	-0.016798465
72	0xbc55c554	-0.013047535
73	0xbc055865	-0.008138751
74	0xbb19d9fc	-0.0023475876
75	0x3a59592f	0.00082911825
76	0xb84c2a5a	-4.8676833e-05
77	0x3b05d8a8	0.0020423327
78	0x3c375b65	0.011191224
79	0x3c9905b8	0.018679485
80	0x3de724c6	0.11286311
81	0xbb6c9ff1	-0.0036106075
82	0x3ac338d5	0.0014894257
83	0x3b6d5e40	0.0036219507
84	0xbb1605a5	-0.0022891548

freq_upsampler_imag.weight f4 [85, 85]
0	0xbd9df32c	-0.07712397
1	0x385d696f	5.27887e-05
2	0xb805dbef	-3.19145e-05
3	0x397e1ba3	0.00024233623
4	0x389f1f32	7.5875214e-05
5	0x375e383e	1.3245326e-05
6	0x37c87d7b	2.390029e-05
7	0x38bfd0bb	9.146469e-05
8	0xb919751c	-0.00014634844
9	0x37f2fead	2.896724e-05
10	0x37c5bfcf	2.3573548e-05
11	0xb921876c	-0.00015404605
12	0x39ba748c	0.0003556352
13	0x3979152f	0.00023754382
14	0xba0d47cb	-0.0005389421
15	0x3882e5bc	6.2416744e-05
16	0xba168841	-0.00057423493
17	0x397386cd	0.00023224503
18	0xb98a9d8b	-0.0002643879
19	0xb5e90d79	-1.7363774e-06
20	0xb855356b	-5.0832907e-05
21	0x38d792cd	0.00010279343
22	0xb949af56	-0.00019234171
23	0x3a5d8323	0.0008450022
24	0x395697ca	0.00020465176
25	0xb9045923	-0.00012621707
26	0x396255af	0.00021584959
27	0x390ef68b	0.0001363402
28	0xb9df1eaf	-0.00042556736
29	0xb980098f	-0.00024421184
30	0xb8f0e189	-0.00011486101
31	0xba5320ce	-0.00080538995
32	0x3b204db1	0.002446037
33	0xb95ab8b9	-0.00020858915
34	0xb81a25d5	-3.6751695e-05
35	0xb81889a6	-3.636782e-05
36	0x38f9a346	0.00011903657
37	0xb955daa7	-0.00020394717
38	0x39878ade	0.0002585267
39	0x38000a51	3.0527186e-05
40	0x396b9535	0.0002246693
41	0x38c4441d	9.3586954e-05
42	0x38f35b27	0.000116041214
43	0x39922403	0.0002787412
44	0x3784cffc	1.5832476e-05
45	0xb8a52ae4	-7.875802e-05
46	0x3a31eabd	0.0006786993
47	0x3a4d92e4	0.0007842018
48	0xba9a2357	-0.00117598
49	0xb9a28242	-0.00030996097
50	0xb95c92cd	-0.00021035523
51	0x39230131	0.00015545335
52	0x38827aee	6.2217805e-05
53	0x39ddf53f	0.00042335127
54	0x39d420d3	0.00040460247
55	0x38e64e15	0.000109817986
56	0x3993807a	0.00028133747
57	0xb7daef63	-2.6099098e-05
58	0x3a61e331	0.0008616923
59	0x38ea6edb	0.00011178638
60	0x39b873cd	0.00035181493
61	0x38fd791b	0.00012086538
62	0x3a05fdff	0.0005111396
63	0x3b295b26	0.0025841682
64	0x390acded	0.00013237419
65	0xba834f06	-0.0010018058
66	0x382faaaf	4.1882213e-05
67	0x3a2428bc	0.00062621734
68	0xb9ec3d0f	-0.0004505892
69	0xb95c9613	-0.00021036742
70	0x39de4ad9	0.00042398905
71	0x38e899b6	0.00011091253
72	0x3a83f686	0.0010067977
73	0x3a60ed25	0.0008580259
74	0x39a3e311	0.0003125896
75	0xb96e9e10	-0.00022756332
76	0x3a9c5140	0.001192607
77	0x3ad9b271	0.0016608966
78	0xb97216b7	-0.0002308738
79	0xba843afa	-0.0010088377
80	0xbb39a1ac	-0.0028325124
81	0x3aae6a23	0.0013306778
82	0x3a1a3649	0.0005882723
83	0x38d9a0f7	0.000103773484
84	0x3926f134	0.00015920849
85	0xbd97a230	-0.07403982
86	0x37fd5523	3.0199595e-05
87	0xb8c27ff3	-9.274473e-05
88	0xb811ea2c	-3.4788784e-05
89	0xb84c68bc	-4.873493e-05
90	0x386ea79e	5.6899727e-05
91	0xb8831e2d	-6.2521874e-05
92	0xb7238e1e	-9.748646e-06
93	0xb9044168	-0.00012612867
94	0x38095fad	3.275245e-05
95	0xb87371e6	-5.804179e-05
96	0xb919e5ea	-0.00014676867
97	0x3617e29f	2.2632664e-06
98	0x370d9dc2	8.440986e-06
99	0xb98659a6	-0.00025625265
100	0x38c805d3	9.537828e-05
101	0x39b15842	0.00033825828
102	0x39df9cc6	0.0004265068
103	0xb9c2462e	-0.0003705485
104	0xb9a1a5b7	-0.0003083178
105	0xb8c57e4c	-9.417217e-05
106	0xb8a58aea	-7.893688e-05
107	0xb9023902	-0.00012419003
108	0x39c73f3d	0.00038003354
109	0x3772ed90	1.4479636e-05
110	0xb97b445f	-0.00023962696
111	0x388677f5	6.411962e-05
112	0x374121f6	1.1511604e-05
113	0xb996969e	-0.00028722448
114	0xb9d77071	-0.0004109177
115	0xb94461b2	-0.00018728411
116	0xba263520	-0.00063403137
117	0x3911e553	0.00013913708
118	0x3abd8ada	0.0014460937
119	0xb7b927f6	-2.2072327e-05
120	0x388b35bd	6.638046e-05
121	0xb938ab8e	-0.00017611517
122	0x37022421	7.757016e-06
123	0x38199f22	3.6626247e-05
124	0x38864a19	6.40342e-05
125	0x383bb55d	4.4753182e-05
126	0x391bb985	0.00014851063
127	0xb90ad3a1	-0.00013239543
128	0x3918753b	0.00014539521
129	0xb7def8e6	-2.6580365e-05
130	0x38fd089f	0.00012065586
131	0xb91d360d	-0.00014992822
132	0x394d4cfc	0.00019579002
133	0xb8d44446	-0.00010121665
134	0xbb14ef24	-0.0022725547
135	0x3965c134	0.00021911116
136	0x3a112cd1	0.0005537989
137	0x395795f1	0.00020559855
138	0x39f1a91a	0.00046093093
139	0xb8c0e36d	-9.197635e-05
140	0x395ef085	0.0002126117
141	0x38b1190a	8.4446816e-05
142	0x372a339c	1.0144806e-05
143	0x39367b5e	0.0001740283
144	0xb8666db2	-5.4938435e-05
145	0x398d2a7b	0.00026925266
146	0x38af4c43	8.358855e-05
147	0x391ff067	0.00015252978
148	0x39b75b8d	0.0003497269
149	0xb9d5c581	-0.00040773678
150	0x39ce0a73	0.00039299167
151	0x3a95971a	0.001141283
152	0x39b57511	0.00034610232
153	0xb8cce861	-9.770762e-05
154	0xb7bdc801	-2.262369e-05
155	0x39596f74	0.00020736252
156	0x381bf9b9	3.7187452e-05
157	0x3a33a3ee	0.00068527355
158	0x3a058087	0.00050926994
159	0x39f8acb9	0.00047430935
160	0x39ecf849	0.00045198415
161	0x3a22571c	0.000619279
162	0x3a2a8da6	0.00065060926
163	0x39bcf70f	0.00036042227
164	0xb9d9db82	-0.0004155301
165	0x3a47f055	0.000762706
166	0xbb2b3c47	-0.0026128457
167	0x39a37fbc	0.00031184952
168	0x39dc6abe	0.000420412
169	0xb98bb0fd	-0.00026644013
170	0xbc6bd920	-0.014395028
171	0x3797bcdd	1.8088549e-05
172	0x38ed33a6	0.00011310661
173	0xb844db4f	-4.693429e-05
174	0x34077cda	1.2618275e-07
175	0x373cf70a	1.12631915e-05
176	0xb9081cf0	-0.00012980751
177	0xb80ad2fe	-3.3098266e-05
178	0xb8dab0df	-0.00010427995
179	0x37d84c2e	2.578468e-05
180	0xb7a9d784	-2.0246727e-05
181	0xb90f524d	-0.00013668202
182	0xb8366c0f	-4.349282e-05
183	0x3829f4cf	4.0520736e-05
184	0xb9becdc9	-0.00036392946
185	0x36e0d410	6.7004075e-06
186	0x383eb403	4.546718e-05
187	0xb982f2f9	-0.0002497656
188	0xb91d6c4e	-0.00015013033
189	0x3964ffdd	0.00021839091
190	0x3950d29a	0.00019914881
191	0xb59ccacf	-1.1681931e-06
192	0xb78e5f0a	-1.6971975e-05
193	0x3a47a428	0.0007615709
194	0xb94a77cd	-0.0001930885
195	0xb8f3700e	-0.00011608015
196	0x392be411	0.00016392792
197	0x39264aeb	0.00015858903
198	0xb9839d08	-0.00025103264
199	0xb845ae9b	-4.7131074e-05
200	0x38c8d25c	9.575926e-05
201	0xb916343f	-0.00014324578
202	0x3952346b	0.00020046688
203	0xb91840ba	-0.00014519962
204	0x3996e5a4	0.00028781325
205	0x39bdfd03	0.00036237398
206	0xb7cfff16	-2.4795107e-05
207	0x3922662b	0.00015487584
208	0x38a03eac	7.641068e-05
209	0x356b97bc	8.7765125e-07
210	0x3889d00d	6.5714215e-05
211	0x399bb219	0.00029696597
212	0x3761146c	1.34158e-05
213	0x39802894	0.00024444296
214	0x38cd6586	9.794072e-05
215	0x38c08b11	9.1811766e-05
216	0x38837826	6.268946e-05
217	0x39592840	0.00020709727
218	0x3902b968	0.00012466835
219	0x3a68826f	0.0008869534
220	0xba4cdfac	-0.0007815312
221	0xb8e80c4a	-0.00011064911
222	0xb96465c9	-0.00021781692
223	0x3a08e136	0.00052215473
224	0xb943b38a	-0.00018663533
225	0x3896f06a	7.197338e-05
226	0x35748320	9.1087895e-07
227	0x38ec9bb6	0.0001128236
228	0x39109bd2	0.00013790958
229	0xb79a8852	-1.842171e-05
230	0x3967c0a5	0.00022101642
231	0x391ae58e	0.000147721
232	0x3a0752a1	0.0005162154
233	0x39ecea8f	0.00045188188
234	0xb8d10e91	-9.96861e-05
235	0x3a3a6bc6	0.00071113964
236	0xb8f6c2bd	-0.00011766467
237	0xb9c8e768	-0.00038319384
238	0x38839d05	6.275814e-05
239	0x37e213a4	2.6950445e-05
240	0x3947187d	0.00018987241
241	0xb950cc8b	-0.00019912624
242	0x3a3d059e	0.0007210615
243	0x39d04f5e	0.00039731985
244	0x394cdeb0	0.00019537914
245	0x39cc625c	0.00038983196
246	0x39a81310	0.0003205766
247	0x3a11b3d3	0.0005558107
248	0xb8cc597f	-9.744148e-05
249	0x3697018d	4.500331e-06
250	0xb98b18e1	-0.00026530682
251	0x39d3426c	0.00040294544
252	0xba58175a	-0.0008243226
253	0x383904a2	4.411175e-05
254	0xba30714a	-0.00067307486
255	0x3c96962f	0.01838216

freq_upsampler_imag.bias f4 [85]
0	0xbd6b382d	-0.05742662
1	0x3c185ba6	0.009299194
2	0x3bd54bb5	0.006509269
3	0x3b22f398	0.0024864431
4	0x3bcdbecb	0.006278848
5	0x3af01d15	0.0018319214
6	0x3c321c0c	0.010870945
7	0x3c491936	0.012274077
8	0x3c4831e6	0.012218928
9	0x3c2d632d	0.010582727
10	0x3c257d43	0.0101006655
11	0x3b9cd0bb	0.004785625
12	0x3b5af39c	0.0033409363
13	0x3c733d90	0.014846221
14	0x3c6220c1	0.013801754
15	0x3c17fc01	0.009276391
16	0xbd04ee49	-0.03245381
17	0x3c8f589a	0.017498303
18	0x3c8f60af	0.017502157
19	0x3c6b7af1	0.014372573
20	0x3c6c8afa	0.0144374315
21	0x3c302132	0.010750102
22	0x3c383932	0.011244105
23	0x3c459ced	0.01206134
24	0x3c594d7d	0.013263104
25	0x3c70be98	0.014693879
26	0x3c8a840c	0.016908668
27	0x3cadc3ab	0.021211466
28	0x3cc9abee	0.024618115
29	0x3c81248f	0.015764503
30	0x3c624099	0.013809347
31	0x3ccf4078	0.025299296
32	0x3a37092d	0.00069822633
33	0x3cd5ca3e	0.026097413
34	0x3ccd59d3	0.025067246
35	0x3c7b0759	0.015321576
36	0x3cb0351c	0.0215097
37	0x3cd38e27	0.02582462
38	0x3c64c17e	0.013962148
39	0x3c4b298a	0.01240004
40	0x3c1a2fa4	0.0094107725
41	0x3c1eea18	0.009699367
42	0x3c3346ab	0.0109421415
43	0x3bfe8c1a	0.0077681663
44	0x3bfd5212	0.007730731
45	0x3bbfa614	0.0058486555
46	0x3b10f34c	0.0022117672
47	0xbbb94b55	-0.005654732
48	0x3c1679b7	0.0091842925
49	0x3c86c37f	0.016450642
50	0x3c7bff6f	0.015380724
51	0x3bada224	0.0052988697
52	0x3be699c2	0.0070373723
53	0x3c30c860	0.010789961
54	0x3c287216	0.010281106
55	0x3c1ebdff	0.009688853
56	0x3c309be2	0.010779353
57	0x3c3eb861	0.011640639
58	0x3c1764cb	0.0092403395
59	0x3c1a0afb	0.009402032
60	0x3be23c38	0.0069041513
61	0x3bbe32b1	0.0058043827
62	0x3c362c67	0.011118985
63	0x3b990940	0.004670292
64	0x3d2719f2	0.040796228
65	0xbb8fc7c8	-0.0043878295
66	0xbb9cfdbb	-0.004790989
67	0x39c99805	0.0003845097
68	0x3a9c4523	0.001192246
69	0xba05f575	-0.00051101233
70	0x3b9a7780	0.0047139525
71	0x3c24f6af	0.01006858
72	0x3be123e5	0.006870734
73	0x3c19e517	0.009392998
74	0x3c3b0a0e	0.011415971
75	0x3c863061	0.01638049
76	0x3bc89fbd	0.006122558
77	0x3c2f9af4	0.010718096
78	0x3c4596e8	0.012059905
79	0x3be0b893	0.0068579405
80	0x3e16a886	0.14712724
81	0x3d10b883	0.035332214
82	0x3c619ed0	0.013770774
83	0x3c7c8bc2	0.01541418
84	0xba237c85	-0.00062365114
