best_model.pth (torch, 16955 bytes, 4 tensors)

freq_upsampler_real.weight f4 [42, 42]
0.06931149 7.463001e-05 0.00022859077 -0.00047217347 -0.00023087839 -0.0007813482 0.00048533204 -0.0009071226
-0.001964834 2.3436338e-05 0.0004040104 0.00091731607 -0.00074356963 -0.000834432 0.0009665431 -0.0006480833
-0.0002504258 0.0005790673 0.00033290213 0.0014435262 -0.00033179557 -0.00021119922 -0.0024945566 0.0011676272
-0.0010139846 0.0007741341 -0.0016078713 -0.00022657447 -0.0011027773 -0.0010539 -2.2279417e-05 -0.0007975751
0.0026697665 0.0003795656 0.0011458697 -0.0015479317 0.0021482045 -0.0003558689 0.0025940076 -0.0013796722
-0.0023864026 0.001621149 -0.0039607 0.9996783 -0.00033979974 -0.00010963759 -0.0003531318 0.0001783769
0.00046905983 8.862984e-05 -0.00029392124 -0.000564841 0.0015586495 0.0002830837 -0.0006803722 0.00030589767
-0.00037325535 4.1602623e-05 0.0010933967 0.00013058195 0.00045039516 0.0004738899 -0.0005342633 -0.0015535855
-0.0012266688 0.00026909608 -0.00020025522 0.0011777395 -0.00015267919 -0.00027129 -0.0014374349 0.0009757975
-0.00055852946 0.0007167724 -0.0006513205 0.0004106871 0.0005708786 -0.0015935235 0.00036939062 -0.0014914438
0.0012629319 -0.0007514795 -0.00021039815 0.00059587596 0.15305842 0.00014954116 0.99971926 3.4733654e-05
-0.00014132755 0.0002673193 0.00085852464 0.0006910988 -0.00049616385 -0.0013074928 -0.00044171768 -0.0003878583
-0.0011049306 0.0005987667 -0.00035183778 9.463039e-05 0.0006434797 0.00040932756 0.0002960272 0.0010971298
-0.0005373019 0.00035491385 0.0007048086 -0.0007408353 -0.00075932103 0.00060373265 0.00014608611 0.0019668501
-0.00097165 -0.00025862228 -2.6298556e-05 0.0005730813 -9.369047e-05 -0.000162515 0.0019335807 -0.0001765419
-0.00051801716 0.00057876465 -0.001105454 -0.0004476901 -0.00015274418 -0.0015127381 0.10150169 5.2302286e-05
0.00016282928 0.999225 0.0006417405 0.00037417412 0.0005234037 0.0007692699 -0.00057712424 6.629022e-05
-0.0005069661 0.00039370736 -0.00040315007 -0.00024184125 -0.00035057846 -0.0003053719 -0.00025530474 0.0004141059
-1.0998947e-06 -2.5186293e-05 -0.001491925 -0.0002985299 -0.0010216107 -0.0006062852 -0.00022722533 0.001012325
0.00051401526 0.0011628823 -0.0005563737 -0.0002333978 0.00019865535 0.00022085791 -0.0010375022 0.0010595476
0.00025161964 -0.0006879415 -0.0006581282 -0.00033199717 -6.9606656e-05 -0.0005680829 4.458052e-05 -0.0005742987
0.00840947 -0.0001600454 4.9139166e-05 -5.857161e-05 0.9978234 -0.00057536433 0.00019834568 -0.00026504826
0.000940768 -0.0005568809 8.49489e-06 -0.0013924881 0.00074577745 -4.4135566e-05 -0.0004939168 0.00031843694
0.00025764492 -0.00024004611 0.001407424 -0.0005811019 0.0003892381 0.00062435126 -7.817464e-05 -0.00012878916
0.00048526924 -0.0005559802 -0.00067721726 0.0011894194 -0.0011203589 0.0007632927 -0.0002684966 -0.0003628509
-0.00028699808 0.0019967332 0.00055732176 -0.0012266755 0.0018352523 -0.00068688684 0.00063879817 -6.821398e-05
0.0010166294 0.00048364667 0.05794339 -0.00032503955 1.8875526e-05 -0.00019629378 -3.6860758e-05 0.998053
-0.00020811251 -0.00086388265 -0.0015242995 -0.0010056591 0.00057837943 8.9610454e-05 7.232638e-05 -0.00010529888
-0.00022955077 -0.00028737055 -0.00062406034 0.00010789484 0.000962848 8.894112e-05 -0.0011242158 -0.00074738095
-0.0009843278 -0.00042409977 -0.0006043046 -0.0004722561 -0.00043595818 -0.00011467112 -0.0004963927 0.0008836843
0.00030211295 0.00019471305 0.0011123004 7.378896e-06 0.00087885815 -0.0011092422 0.00014126555 -0.0005713301
0.0016609902 -0.0003067722 0.00067735877 -0.0005837719 0.1438119 -0.00019250312 -0.0003411932 -0.00052794244
00000000: 2ff3 8d3d ae82 9c38 deb1 6f39 0d8e f7b9
00000010: f217 72b9 64d3 4cba 2a74 fe39 f8cb 6dba
00000020: 72c4 00bb 2799 c437 5cd1 d339 0a78 703a
00000030: 1dec 42ba c9bd 5aba 9c5f 7d3a 22e4 29ba
00000040: 954b 83b9 8ccc 173a 5e89 ae39 b434 bd3a
00000050: d9f4 adb9 5c75 5db9 b77b 23bb 110b 993a
00000060: ade7 84ba 43ef 4a3a 35bf d2ba 9f94 6db9
00000070: 118b 90ba 0423 8aba afe4 bab7 5c14 51ba
00000080: 40f7 2e3b 6f00 c739 0231 963a f8e3 caba
00000090: e4c8 0c3b ea93 bab9 3a00 2a3b 1ed6 b4ba
000000a0: 3165 1cbb bc7c d43a c2c8 81bb ebea 7f3f
000000b0: 2627 b2b9 3ced e5b8 8c24 b9b9 af0a 3b39
000000c0: 25ec f539 c8de b938 7119 9ab9 d611 14ba
000000d0: 994b cc3a da6a 9439 015b 32ba e460 a039
000000e0: 7cb1 c3b9 7a7e 2e38 4e50 8f3a d3ec 0839
000000f0: 0423 ec39 6d74 f839 ce0d 0cba aea1 cbba
00000100: 2dc8 a0ba 7715 8d39 9afb 51b9 615e 9a3a
00000110: 8218 20b9 ed3b 8eb9 5068 bcba a9cc 7f3a
00000120: 476a 12ba c8e5 3b3a 61bd 2aba 7d51 d739
00000130: 04a7 153a c7dd d0ba c5aa c139 8d7c c3ba
00000140: f688 a53a f0fe 44ba 539e 5cb9 8f34 1c3a
00000150: 59bb 1c3e 26ce 1c39 9aed 7f3f faae 1138
00000160: 5331 14b9 fd26 8c39 9d0e 613a db2a 353a
00000170: fe10 02ba 2e60 abba 5896 e7b9 7659 cbb9
00000180: 52d3 90ba 8ef6 1c3a de76 b8b9 4e74 c638
00000190: 31af 283a 049b d639 1934 9b39 91cd 8f3a
000001a0: b8d9 0cba bb13 ba39 e8c2 383a 9e34 42ba
000001b0: 2c0d 47ba d043 1e3a b12e 1939 45e6 003b
000001c0: 54b6 7eba b297 87b9 b89b dcb7 d63a 163a
000001d0: b07b c4b8 ca68 2ab9 3470 fd3a 1b1e 39b9
000001e0: 8bcb 07ba 3db8 173a e2e4 90ba f3b7 eab9
000001f0: f429 20b9 1147 c6ba 1ee0 cf3d 275f 5b38
00000200: 27bd 2a39 36cd 7f3f 7a3a 283a cd2c c439
00000210: 0735 093a d4a8 493a 274a 17ba 4a05 8b38
00000220: ebe5 04ba 826a ce39 e35d d3b9 c496 7db9
00000230: d8cd b7b9 531a a0b9 6cda 85b9 5a1c d939
00000240: 18a0 93b5 2747 d3b7 b28c c3ba 0184 9cb9
00000250: 91e7 85ba 1cef 1eba 5643 6eb9 feaf 843a
00000260: fbbe 063a db6b 983a 9bd9 11ba 3fbc 74b9
00000270: 244e 5039 1896 6739 ccfc 87ba 85e0 8a3a
00000280: d1eb 8339 f956 34ba 3c86 2cba e80f aeb9
00000290: caf9 91b8 66eb 14ba f8fb 3a38 898c 16ba
000002a0: e0c7 093c dcd1 27b9 c71a 4e38 caaa 75b8
000002b0: 5b71 7f3f 0cd4 16ba 03fb 4f39 2df6 8ab9
000002c0: df9d 763a a5fb 11ba 4685 0e37 2684 b6ba
000002d0: 4780 433a 341e 39b8 327a 01ba e2f3 a639
000002e0: 8414 8739 e3b4 7bb9 5079 b83a 1755 18ba
000002f0: a712 cc39 81ab 233a b1f1 a3b8 940b 07b9
00000300: bc6b fe39 33bf 11ba 4887 31ba 4be6 9b3a
00000310: 02d9 92ba b517 483a 01c5 8cb9 063d beb9
00000320: 3b78 96b9 a0db 023b 3b19 123a 66c8 a0ba
00000330: d98c f03a 3210 34ba 0575 273a 1a0e 8fb8
00000340: 6c40 853a f591 fd39 0c56 6d3d 126a aab9
00000350: e256 9e37 36d4 4db9 f09a 1ab8 6780 7f3f
00000360: c738 5ab9 2f76 62ba 01cb c7ba 52d0 83ba
00000370: 639e 173a 3fed bb38 eead 9738 e8d3 dcb8
00000380: 91b3 70b9 39aa 96b9 fb97 23ba 9a45 e238
00000390: a367 7c3a e685 ba38 6c5a 93ba e3eb 43ba
000003a0: 8f04 81ba b559 deb9 326a 1eba 2499 f7b9
000003b0: 5191 e4b9 977b f0b8 5a20 02ba 0da7 673a
000003c0: ea64 9e39 e32b 4c39 9cca 913a 3c98 f736
000003d0: 2c63 663a fe63 91ba af20 1439 50c5 15ba
000003e0: 95b5 d93a 45d6 a0b9 c790 313a 4508 19ba
000003f0: 6d43 133e aada 49b9 2de2 b2b9 9e65 0aba

freq_upsampler_real.bias f4 [42]
-0.02940062 -0.029892819 0.007403878 -0.014256508 -0.028963488 -0.02184223 -0.0663223 -0.048734643
-0.045906927 -0.05939196 -0.018489229 -0.0053969095 -0.031705596 -0.0243408 -0.003945413 -0.074219376
-0.04893118 -0.05241881 -0.04866009 -0.061553586 -0.029160311 -0.039459933 -0.03596983 -0.042679965
-0.054473504 -0.052572172 -0.020325372 -0.028703405 -0.03729382 -0.0109346295 -0.015193545 -0.044781514
-0.031054627 -0.07429774 -0.03765846 -0.046159387 -0.021522718 -0.038831692 -0.019352788 -0.010597096
0.050257526 0.03189535
00000000: 92d9 f0bc c9e1 f4bc 3b9c f23b 2194 69bc
00000010: d644 edbc 7aee b2bc fcd3 87bd fa9d 47bd
00000020: e708 3cbd fc44 73bd b976 97bc 8fd8 b0bb
00000030: badd 01bd 5b66 c7bc 8648 81bb 5400 98bd
00000040: 106c 48bd 1bb5 56bd cd4f 47bd 9d1f 7cbd
00000050: 9be1 eebc bda0 21bd 1a55 13bd 30d1 2ebd
00000060: 9c1f 5fbd eb55 57bd 6581 a6bc 6723 ebbc
00000070: 68c1 18bd 2927 33bc 59ee 78bc d26c 37bd
00000080: 4666 febc 6a29 98bd c23f 1abd a011 3dbd
00000090: 6950 b0bc fb0d 1fbd bd89 9ebc 719f 2dbc
000000a0: d6da 4d3d b3a4 023d

freq_upsampler_imag.weight f4 [42, 42]
-0.13443527 -0.00018245302 -0.00030035025 -0.0006771402 -2.4759796e-05 0.0013737525 5.2728392e-05 0.001224689
-0.0019311697 0.0007264941 0.00028834832 0.0011060993 -0.0029247438 2.0772599e-05 0.00011958741 -0.0005601283
0.00013285238 0.0016481186 0.0007253073 -0.00023173596 0.00073110516 -0.00045656186 -0.0009257591 0.00087238546
-0.0005269795 -3.546921e-06 0.0004476628 -0.001088924 -0.00046485921 0.000457186 0.00038730106 0.000891663
0.0011777641 -0.0011832279 0.001808853 -0.00042165385 -6.6220964e-06 -0.00017343872 -0.0001012999 -0.0010287573
-0.00013413357 0.0015013417 -0.10795672 -0.00023917443 1.4553527e-06 -0.00020470707 -0.00016741928 -0.0010456595
0.0005033995 0.00028771602 0.0004107361 0.00043334145 -0.00047439674 0.0002499183 -0.00042041056 -0.00056122453
-0.00022908777 -0.0010000475 -0.0007048482 0.00015011104 0.0005088297 -0.0006111815 0.0011648751 -0.001712699
-0.0007495506 -0.0001230635 -0.00036035993 -0.0022545347 -0.00053451856 -0.0011479295 -0.0002406289 -0.0003209083
0.00051114504 -0.0010161331 0.0005677072 -0.00015716451 -0.00041572208 0.00014755785 0.00051214267 0.0006511503
0.0004964582 0.001815067 0.0007565347 0.001084016 0.10925481 -0.00028168948 -4.886808e-05 -0.00020858474
0.000112024 0.00018270384 0.0004571309 1.5523146e-05 -0.00033182476 0.00034857693 -0.00059752783 0.0006415853
0.00046248423 -0.00064679683 -0.0001741538 -0.0009512775 -0.00040971264 -0.001234243 -0.0011801099 -0.00057196856
-0.00023362647 0.0005456562 -0.00013417743 0.0008053773 0.00035316465 -0.0013356277 1.2082521e-05 0.00048786108
0.00014399449 0.0009586799 -0.0005935411 -0.00040984512 0.00050487026 -0.000118427924 0.0008482542 0.00033195323
-0.00046504685 0.0010305427 0.0011171096 0.0009022568 6.384136e-05 0.00058681396 0.0018348127 -0.0004076533
7.2479816e-05 0.00014520824 0.00029043248 -1.061623e-05 -0.0014258361 0.0005626676 -2.8009152e-05 -0.00047377244
-0.0014945808 -4.1503976e-05 0.0010830376 7.76349e-05 0.00030133035 8.403944e-05 0.00017225635 -0.00116281
3.573121e-05 0.00069636083 0.00021243803 0.00068174227 -0.00062906893 -0.00024077254 -0.0009904853 -0.0006881583
-0.00021204939 -0.0010886556 0.0004274108 0.0007932204 -0.00023108255 -0.00075469055 0.0012536478 -0.00016576806
0.00082321477 -0.00068243203 -0.00081168156 0.002010332 0.002282597 0.00050212076 0.00017113907 -0.0011967453
-0.15024054 -0.0003053478 -0.0002393074 -0.00035029315 -0.00049003266 0.0001323212 -0.0006560351 -0.00018042703
0.00048713852 0.0013213541 -0.00046295702 0.00091624673 -0.00015925009 0.00011077043 -0.00044032003 2.8147657e-05
0.00011869946 0.00010283322 0.00017120784 -0.0012987342 -0.0008076082 -0.00026018996 -0.0006629626 -0.00027580513
-0.000110314126 -5.8488862e-05 2.8678573e-05 -0.00022038168 -0.00056036597 0.0014446427 0.001811989 0.0007053462
0.000612389 0.0011305053 0.00068361417 0.0008869968 9.2420945e-05 -0.0011002845 -0.00028892493 -0.0022628447
0.0009916947 -0.00052905176 0.026251893 -0.000233212 2.470017e-05 -0.0007263523 0.00073259656 3.5325724e-05
-0.0012527017 0.0010220401 -0.0006236691 0.0005952918 -0.00057003624 6.4006425e-05 0.0010807074 -0.00026818502
-2.271095e-05 -0.00033817772 0.00038470587 5.262744e-05 -3.2281452e-05 -0.0005103779 0.00036176798 0.00048107936
0.000111189074 -4.5428824e-05 -0.00070315955 -0.00048719096 -0.0006797384 0.00037198322 0.00060228497 -0.0015805123
0.0005060524 -4.9361017e-05 0.001157426 0.0013984843 -0.00033798718 -0.00085824175 -0.00080139615 0.0015947273
-0.0009320155 -0.00026929143 -0.00030200824 0.001106107 -0.11734294 -0.00012163254 3.970624e-05 -0.00023763457
00000000: 66a9 09be dc50 3fb9 5478 9db9 1c82 31ba
00000010: 42b3 cfb7 7c0f b43a ae28 5d38 be85 a03a
00000020: 4d1f fdba 3272 3e3a 752d 9739 89fa 903a
00000030: 0fad 3fbb d140 ae37 00cb fa38 93d5 12ba
00000040: 4a4e 0b39 af05 d83a 8d22 3e3a 26fe 72b9
00000050: a3a7 3f3a b25e efb9 a4ae 72ba ccb0 643a
00000060: ff24 0aba a407 6eb6 49b4 ea39 3aba 8eba
00000070: 59b8 f3b9 77b2 ef39 ab0e cb39 7ebe 693a
00000080: 355f 9a3a 8a16 9bba 0917 ed3a 6c11 ddb9
00000090: 6033 deb6 1add 35b9 f870 d4b8 5ed7 86ba
000000a0: 35a6 0cb9 abc8 c43a 6a18 ddbd e6ca 7ab9
000000b0: 8a55 c335 a3a6 56b9 458d 2fb9 830e 89ba
000000c0: 92f6 033a 97d8 9639 1158 d739 1b32 e339
000000d0: 74b8 f8b9 7707 8339 8d6a dcb9 241f 13ba
000000e0: 4837 70b9 0714 83ba 90c5 38ba 2067 1d39
000000f0: fc62 053a b237 20ba b9ae 983a a47c e0ba
00000100: 7d7d 44ba 9b0a 01b9 b1ee bcb9 d1c0 13bb
00000110: ef1e 0cba 1f76 96ba 5451 7cb9 953f a8b9
00000120: 5dfe 053a c52f 85ba 2fd2 143a 87cc 24b9
00000130: 46f5 d9b9 c2b9 1a39 5041 063a f5b1 2a3a
00000140: bf24 023a 8be7 ed3a 2f52 463a 8b15 8e3a
00000150: fcc0 df3d b9af 93b9 b4f7 4cb8 8ab7 5ab9
00000160: 6dee ea38 3094 3f39 12ab ef39 b437 8237
00000170: c4f8 adb9 34c1 b639 6aa3 1cba 1030 283a
00000180: 9579 f239 cd8d 29ba 0e9d 36b9 275f 79ba
00000190: b3ce d6b9 53c6 a1ba ebad 9aba 29f0 15ba
000001a0: a1f9 74b9 5e0a 0f3a fbb1 0cb9 f51f 533a
000001b0: f528 b939 3b10 afba 08b6 4a37 9bc7 ff39
000001c0: 3afd 1639 eb4f 7b3a de97 1bba 7be0 d6b9
000001d0: 4559 043a 825c f8b8 605d 5e3a 020a ae39
000001e0: 88d1 f3b9 4613 873a fa6b 923a 6e85 6c3a
000001f0: 92e2 8538 6bd4 193a 197e f03a 4dba d5b9
00000200: 4e00 9838 0a43 1839 3045 9839 5c1c 32b7
00000210: 1fe3 baba fc7f 133a 32f5 eab7 a964 f8b9
00000220: cfe5 c3ba 8e14 2eb8 b6f4 8d3a ebcf a238
00000230: e0fb 9d39 553e b038 b69f 3439 6e69 98ba
00000240: 18de 1538 fc8b 363a e6c1 5e39 f3b6 323a
00000250: 1ae8 24ba e377 7cb9 2cd3 81ba 8665 34ba
00000260: 9359 5eb9 38b1 8eba 1b16 e039 1ff0 4f3a
00000270: c04e 72b9 6dd6 45ba 7151 a43a 06d2 2db9
00000280: 02cd 573a 3de5 32ba 07c7 54ba c6bf 033b
00000290: 9f97 153b c1a0 033a cb73 3339 1cdc 9cba
000002a0: a8d8 19be 1717 a0b9 97ee 7ab9 8da7 b7b9
000002b0: 8975 00ba b4bf 0a39 c5f9 2bba 0331 3db9
000002c0: a066 ff39 4931 ad3a 0ab9 f2b9 4730 703a
000002d0: 5ffc 26b9 6c4d e838 c1da e6b9 a21e ec37
000002e0: 4aee f838 2aa8 d738 4186 3339 4a3a aaba
000002f0: abb5 53ba 1b6a 88b9 abca 2dba f099 90b9
00000300: 7258 e7b8 f051 75b8 c492 f037 4216 67b9
00000310: 86e5 12ba 2a5a bd3a 4380 ed3a fbe6 383a
00000320: bb88 203a 772d 943a 9234 333a 5985 683a
00000330: 1ed2 c138 6c37 90ba d97a 97b9 3c4c 14bb
00000340: c1fb 813a 10b0 0aba 360e d73c 5f8a 74b9
00000350: 3633 cf37 ad68 3eba b90b 403a b52a 1438
00000360: b231 a4ba faf5 853a ba7d 23ba 5b0d 1c3a
00000370: 7c6e 15ba 303b 8638 86a6 8d3a 2f9b 8cb9
00000380: 6583 beb7 724d b1b9 59b2 c939 49bc 5c38
00000390: f265 07b8 e2ca 05ba adab bd39 6139 fc39
000003a0: 2e2e e938 d48a 3eb8 3d54 38ba aa6d ffb9
000003b0: 7930 32ba be06 c339 a9e2 1d3a 3129 cfba
000003c0: 9aa8 043a fd08 4fb8 c6b4 973a 594d b73a
000003d0: df33 b1b9 a1fb 60ba c914 52ba 2b06 d13a
000003e0: 8052 74ba af2f 8db9 dc56 9eb9 cbfa 903a
000003f0: 7f51 f0bd f914 ffb8 408a 2638 8b2d 79b9

freq_upsampler_imag.bias f4 [42]
0.14782713 0.0023551097 0.0355221 -0.011869531 0.030757014 0.009977876 0.028545247 0.03966116
0.0016017831 0.034079757 0.01214934 0.027049404 0.0115105705 -0.003962413 0.011281301 0.050830744
0.04526199 0.0484718 0.07503909 0.019287104 0.052013505 0.03611074 0.010113199 0.05476989
0.008067727 0.04395618 0.03445592 0.040635638 0.007236131 0.053206872 0.017052941 0.017100956
0.09545407 0.04689609 0.009544763 0.046118584 -0.0026855404 -0.020017032 0.017679058 0.012585961
0.020458264 0.02166623
00000000: ff5f 173e 2f58 1a3b 9f7f 113d 6c78 42bc
00000010: 22f6 fb3c 3f7a 233c b9d7 e93c be73 223d
00000020: ecf2 d13a 3797 0b3d 060e 473c b696 dd3c
00000030: d596 3c3c 21d7 81bb 35d5 383c e633 503d
00000040: a364 393d 5e8a 463d 18ae 993d fdff 9d3c
00000050: 1d0c 553d dbe8 133d d5b1 253c 6456 603d
00000060: 802e 043c 650b 343d a721 0d3d 8e71 263d
00000070: 111d ed3b 73ef 593d 9cb2 8b3c 4e17 8c3c
00000080: 6c7d c33d 1d16 403d a361 1c3c d7e6 3c3d
00000090: e4ff 2fbb c2fa a3bc acd3 903c 5935 4e3c
000000a0: 1798 a73c 617d b13c
