best_model.pth (torch, 16488 bytes, 4 tensors)

freq_upsampler_real.weight f4 [42, 42]
00000000: c666 cfbd 0aae 1db9 dc91 a538 3e29 a3b8
00000010: d231 e1b9 d79a 1aba 0d5d 24ba d4df a2ba
00000020: 89f4 69ba 78d5 14ba ca5b fab8 222f 543a
00000030: 0332 54ba 2901 f5b8 05b8 f1b9 c198 8bba
00000040: 8f83 8239 a3f5 793a 58f3 c4b9 f5d2 bd3a
00000050: cfb3 feb9 36bd 35ba 43e5 a2ba 73bc 8f3a
00000060: a36f 5d3a b734 b1b8 aff2 7a39 c1b5 28ba
00000070: 1aa5 8c3a 3067 a9b9 298a 303a 2e72 d3ba
00000080: 826a 493a e5d2 0dba b71a 0cb8 8516 23bb
00000090: 2cac f23a 0d99 01bb ac31 42b9 c6fd 0cbb
000000a0: c2c4 5dbb bfb1 adbb ffdb d43d 41f4 7f3f
000000b0: b326 1539 ef0c acb9 ee02 09b8 f049 2d39
000000c0: 9694 bdb9 3e54 efb9 77cf 06ba 2236 c8ba
000000d0: e446 4a3a 6b77 aa39 95c0 afb9 005a 8b39
000000e0: fac9 0cb9 5bf0 37b8 be05 9138 d1c9 493a
000000f0: 6ad4 82b8 5904 763a 15f9 e5b8 ca80 e2b8
00000100: c75c 6db9 972f d039 d417 b8b8 63cb 763a
00000110: 82cd 783a 6866 3339 dcea 493a ba1a 6b39
00000120: 1d4d 0a3a d410 94b9 d2d5 8438 b343 c339
00000130: 874a 8339 719a ddb9 dbff 30ba 10eb 87ba
00000140: b476 ae3a 370a 6fba 5791 2eba 91f0 9aba
00000150: df1e 0bbe aafb 4cb9 9fff 7f3f 3536 bbb9
00000160: 4512 b3b8 c4ae 10b9 c859 1f3a b76e 0dba
00000170: 773b 8cb9 0b73 52b9 74f1 22ba a9c4 7836
00000180: ed7c 96ba d50c 7038 ff01 eab9 f879 8739
00000190: 065a c139 a9b5 6739 61ae 073a 814e 6e3a
000001a0: 60d5 c6b4 18cd fe39 d432 b739 d172 63b9
000001b0: 34fc 36b9 86c1 123a 266f d839 7a6a 4fb9
000001c0: 6ad3 113a be55 2fba d1a3 843a 4000 4aba
000001d0: 680e dfb8 3712 7cba 5d40 633a d5b4 17ba
000001e0: 8b1a 4eba 7d73 4aba 53a4 40bb 84f0 40ba
000001f0: 38bf 47ba 821b 46ba 7321 0e3e 363c 32b9
00000200: 1cd7 9ab8 7dd9 7f3f c773 a4b9 4a49 76b8
00000210: 0b8f 2cba 7cf5 76ba 17fb 06b8 75e9 35ba
00000220: 11df d038 a947 a439 d870 96ba 6267 f2b7
00000230: 6360 25b9 6046 39ba 71d7 ac39 1835 2a39
00000240: ba39 6039 3be4 bf39 8251 d0b9 0cbf f0b9
00000250: febd 8aba d29f 223a a37c ae39 5be6 413a
00000260: 3f45 2c3a ac75 dc3a 4996 023a c68a 5bb9
00000270: c458 e539 d9ee 38ba d326 86b9 e3e8 eeb8
00000280: d590 9cb8 4e5f 81b9 6967 41ba e1ff 33ba
00000290: 4de9 86b9 bb2c 54bb f9c6 fc39 5f6e 9cba
000002a0: a330 0dbe 514d 3cb9 c748 2eb9 85af 87b9
000002b0: 7ab2 7f3f c813 e538 6306 62ba 8054 bcba
000002c0: d30d 57b9 6194 83ba b142 29b7 c541 c038
000002d0: 9f18 24ba b965 85b9 2182 05ba 718a 5038
000002e0: da86 3438 5233 b337 c092 8939 4a53 09b8
000002f0: f251 ac39 3db4 2339 42c1 e8b9 39ef 6d3a
00000300: 61be 5739 98b2 c139 309f 313a ef6e 3c39
00000310: 08d1 b7ba 8ea6 dfb9 7f85 20ba 88ed afba
00000320: 09ea 1ab9 12e6 6cba afd7 71b9 6ca7 13bb
00000330: 8cdf d5b9 78f5 90b9 53c2 1c39 ab0d 33ba
00000340: 4190 e5b9 8136 a2ba 8d00 f93d 11b0 5db9
00000350: 048d 2ab8 9157 e6b9 41bb 7c39 57c2 7f3f
00000360: dbdb 94ba a1fc e3ba 79e0 d3b9 59cc a9ba
00000370: c556 55b8 ef66 afb9 4f28 8eb9 0c3f 2c3a
00000380: 8246 35b9 e4e1 69b9 15e1 9e39 6652 34ba
00000390: 70cb b6b8 304d 4939 b49f 0aba b4df 9038
000003a0: 63c6 08ba 2b83 9239 7346 c739 8930 ce38
000003b0: 37d6 3c3a 91bf 103a 137f 4e39 3a5f 953a
000003c0: 3989 0fba 9816 22ba f968 fdb8 e28a 9aba
000003d0: d3d1 d4b9 fc5a 9bba 2078 85b9 010b 36bb
000003e0: ffc5 e3b9 c1bc c5ba 56e2 03bb 88fd 64bb
000003f0: 30dd bfbd f820 82b9 2909 d1b6 738a e2b9
-0.10127024 -0.00015037521 7.8949815e-05 -7.7801276e-05 -0.00042952463 -0.0005897707 -0.0006269969 -0.0012426325
-0.0008924683 -0.0005677561 -0.00011938026 0.00080941815 -0.00080946105 -0.000116827265 -0.00046104207 -0.0010650383
0.0002489355 0.0009535199 -0.00037565338 0.0014482426 -0.00048580623 -0.00069327967 -0.0012427944 0.0010966196
0.0008447116 -8.4498366e-05 0.00023932265 -0.0006435775 0.0010730356 -0.00032311073 0.00067344547 -0.0016132051
0.00076834124 -0.0005410149 -3.340348e-05 -0.002488525 0.0018514446 -0.0019775063 -0.00018519786 -0.0021513565
-0.00338392 -0.00530073 0.103935234 0.99982077 0.00014224164 -0.00032816033 -3.2666074e-05 0.0001652611
-0.00036159594 -0.00045648398 -0.0005142609 -0.0015274922 0.0007716252 0.000325139 -0.00033522086 0.000265792
-0.00013426683 -4.385445e-05 6.915208e-05 0.00076976145 -6.238448e-05 0.0009384803 -0.00010965966 -0.000108005086
-0.00022636644 0.0003970831 -8.778242e-05 0.0009414462 0.0009491072 0.0001710892 0.0007702538 0.00022421303
0.0005275773 -0.00028241298 6.3340776e-05 0.00037243738 0.00025041794 -0.00042267473 -0.00067519926 -0.0010369737
0.0013310523 -0.00091186486 -0.00066592306 -0.0011820962 -0.13585995 -0.00019548708 0.9999942 -0.00035707807
-8.538788e-05 -0.00013798015 0.0006078747 -0.0005395221 -0.00026747186 -0.00020070017 -0.0006215789 3.706935e-06
-0.0011481323 5.723241e-05 -0.00044633445 0.0002584008 0.000368789 0.0002209755 0.0005175826 0.00090906775
-3.7035625e-07 0.00048599462 0.0003494235 -0.0002169118 -0.00017450826 0.0005598295 0.00041281543 -0.00019780724
0.0005562814 -0.0006688497 0.0010119622 -0.0007705726 -0.00010636152 -0.00096157513 0.00086689537 -0.0005787139
-0.00078622316 -0.00077228976 -0.002939482 -0.00073600584 -0.00076197414 -0.00075571996 0.13879947 -0.00016997833
-7.3833595e-05 0.99941236 -0.00031366778 -5.8719226e-05 -0.00065825944 -0.00094207353 -3.2181935e-05 -0.000693939
9.959762e-05 0.0003133391 -0.0011477722 -2.889679e-05 -0.00015771533 -0.00070676766 0.00032966913 0.00016232242
0.0002138381 0.00036600404 -0.0003973358 -0.00045918708 -0.0010585187 0.00062036247 0.00033280728 0.00073966914
0.0006571598 0.0016819737 0.00049815007 -0.00020937165 0.0004374442 -0.0007054634 -0.00025587398 -0.00011392103
-7.465637e-05 -0.00024675805 -0.0007377775 -0.0006866437 -0.00025732294 -0.0032375294 0.00048213432 -0.0011934749
-0.13788085 -0.0001795788 -0.00016621045 -0.0002587998 0.9988171 0.000109232555 -0.00086221675 -0.0014368445
-0.00020509148 -0.0010038727 -1.0088713e-05 9.167524e-05 -0.00062597723 -0.00025443526 -0.0005092938 4.9719998e-05
4.3040935e-05 2.136236e-05 0.00026240014 -3.2740914e-05 0.0003286745 0.00015612035 -0.00044394477 0.00090764795
0.0002057492 0.0003694489 0.0006775735 0.00017970403 -0.0014024088 -0.00042657967 -0.0006123408 -0.001342223
-0.0001477377 -0.00090369687 -0.000230639 -0.002253021 -0.0004079308 -0.0002764871 0.00014949711 -0.0006830345
-0.0004378576 -0.0012375863 0.12158308 -0.00021141792 -4.066249e-05 -0.0004393426 0.0002410235 0.99905914
-0.0011357026 -0.0017394015 -0.000404123 -0.0012954577 -5.0863968e-05 -0.00033455293 -0.00027114383 0.0006570674
-0.00017287771 -0.00022304762 0.00030303808 -0.00068787334 -8.7163295e-05 0.00019197608 -0.000528808 6.908123e-05
-0.000521755 0.00027945018 0.00038008727 9.831886e-05 0.00072035514 0.00055217097 0.0001969303 0.0011396178
-0.0005475465 -0.00061831763 -0.00012083533 -0.0011790658 -0.00040592122 -0.0011852677 -0.00025457237 -0.0027777555
-0.00043444333 -0.001508616 -0.002012392 -0.0034941155 -0.0936836 -0.00024820096 -6.2297518e-06 -0.00043209232

freq_upsampler_real.bias f4 [42]
00000000: 2ad8 693c 4415 543c cd13 513c 5a42 aeba
00000010: 2396 193c fc64 b7ba 1c0d 3d3c 9871 703c
00000020: a459 d5bb 280b 8c3a 0dd8 753c 7c32 a03c
00000030: e0c8 ac3c 870f 953c 74d7 683c 13ea 063c
00000040: 9463 11bc e814 233b 85f7 e2bc 99d7 aabc
00000050: fb6f 85bc 63b4 3abc 9480 83bc f996 a03b
00000060: c5fe 40bc 3ec2 583b ca5c 013c 0489 e53b
00000070: 1025 acbc 7e02 6b3b 03cd 0cbc e9e9 c8bb
00000080: 6db2 873c 8c7a 9bbc 9721 03bd a0e4 e2bc
00000090: 295e 5bbc be0e 3bbc 6ba0 b2bb 239a 863c
000000a0: 54c9 4b3d ee76 de3c
0.014272729 0.012944523 0.0127610685 -0.0013294921 0.009374174 -0.0013991888 0.01153877 0.01467552
-0.00651093 0.0010684477 0.015005124 0.019555323 0.021091878 0.01819588 0.014211524 0.008234519
-0.008873839 0.0024884287 -0.027705917 -0.020854758 -0.016288748 -0.011395547 -0.016052522 0.00490081
-0.011779492 0.0033074762 0.007895658 0.007004859 -0.021013767 0.003585964 -0.0085938005 -0.0061314
0.016564572 -0.018979333 -0.032014456 -0.027696908 -0.013389149 -0.011417089 -0.005451252 0.01643092
0.04975255 0.02715632

freq_upsampler_imag.weight f4 [42, 42]
00000000: 8aeb e53d 6e2f 79b8 396a 2438 67a0 a0b8
00000010: 42a8 fbb8 fa5d eab9 89e7 4038 6eb8 9539
00000020: 35df 443a 387c 8f39 ef26 a2b9 ae0f eb38
00000030: 7b84 9837 e482 4539 6505 e338 c335 2c3a
00000040: b7ca dc3a 22ff 2039 ce27 ceb9 0a67 323a
00000050: 928f 57ba 741d e439 be9a 103a 7ced b839
00000060: 63ff e939 f38a 34ba a00d 033a 0a7a 8bba
00000070: 2bde 1aba 23f2 43ba 3be5 6e3a 9ee4 36ba
00000080: c53c 0339 4803 c33a d212 7a3a 63e4 c1ba
00000090: ef5f daba b8fc f73a 02e0 b03a df27 d33a
000000a0: 53cf e33a 772f 4a3a dded 3e3d 16dc aab8
000000b0: 8f76 9ab7 3c9b 46b8 98ff 24b9 6a90 e5b9
000000c0: 1237 8e39 e3bd 9639 41f9 b339 a276 823a
000000d0: 8693 b6b9 b65c 5d39 ccc8 d338 5471 08ba
000000e0: 0015 03ba 2dac dd39 ce93 a639 5423 dab8
000000f0: a667 ce39 7218 2ab9 6942 8e39 8546 2dba
00000100: b1af 6c39 2fd7 82b9 2499 2139 4eb7 f4ba
00000110: d5b3 98b9 9318 25ba 5971 d2b9 2318 c4b9
00000120: c2ed 7b3a 8685 043a 2881 913a 0432 473a
00000130: 8270 1236 a4a7 9338 5dfb 983a 7bec 95ba
00000140: be55 3aba 9714 8e3a 0681 ddb9 a763 633a
00000150: b68a b8bc 361a 9e38 8738 d1b8 6bc1 32b8
00000160: 6c04 a937 ce2c 6e39 5b22 fbb9 b30e efb8
00000170: 5c1e c339 48c9 b139 4076 ba39 e097 5439
00000180: 07fb 1a39 27a8 8639 d82d 96b9 481c 133a
00000190: 21af 633a 9a8c c638 a2b2 39b9 fe0f 7a38
000001a0: bf45 89b9 937e c8b9 5203 8dba b6f4 5e3a
000001b0: 06d4 bf39 60b0 3439 5c64 52ba 7ebc d3b9
000001c0: f4e5 093a ed8f 0c3a f0b1 19ba 4e86 ceb8
000001d0: bd68 683a c923 3bb9 126f d2ba d8ee 053a
000001e0: 90c5 a439 c100 e739 a530 4c3a a69d a439
000001f0: 97dc 6d39 ca23 103a 6feb c3bc 3c2b d2b8
00000200: 54a9 a7b8 80ae fa38 305b 0938 7928 5838
00000210: 3972 00ba 90af a3b9 2a38 a338 39aa 1939
00000220: 93dc 0fba 8c52 9339 05a0 8139 07e6 f4b6
00000230: b01d 103a 5f2f 0d39 abb7 1cb9 a6ca 9138
00000240: 02f1 53b9 ca11 f738 9c65 1539 59a2 cc39
00000250: b6b6 653a 2bbe 3eb9 74f7 4338 4190 1ab9
00000260: e4fd bb38 15ec d0ba b8a8 1a39 c9b5 1d3a
00000270: 1c70 b639 638b c5b9 c8d5 1038 f2d7 8bb8
00000280: b10b 073a ef27 e938 4a52 02b6 1ef9 8939
00000290: a222 eb3a 97b2 733a 774f 84b9 57a8 7aba
000002a0: 4fd6 0cbe 6572 8cb8 7b5b 0fb8 ecb1 5eb9
000002b0: 0142 e439 52f6 2339 f793 06ba e538 d2b9
000002c0: df58 373a 7a72 1f3a 331f 5438 800e 8c39
000002d0: 5f23 9c3a f840 0439 c451 3f38 7ede e739
000002e0: 120a 163a b1f1 f0b8 caa5 20b8 2a38 6c39
000002f0: 53b0 c8ba ee02 ec37 438d 2139 d056 0ab9
00000300: 7e40 41ba 2e27 6d3a 9f64 c539 7edf 193a
00000310: a8d0 65ba 873a a136 50ae ee39 bc05 363a
00000320: 42a3 5b3a c5f7 5b38 8d58 fe39 44fa de39
00000330: 8151 aeb9 eec7 90b9 3fc2 3e3a 06f2 0cbb
00000340: 2105 123a 3582 bdb9 208d 043e e070 28b9
00000350: dde6 e5b8 2382 87b9 57b0 cdb7 1a8f bd37
00000360: c119 ecb9 7708 3a39 05ab 0f39 1179 8838
00000370: 1f60 8439 c370 8739 c346 ee38 1259 fe38
00000380: 2ec0 7839 ea3b e139 0cba 013a 6a78 7638
00000390: 4794 b039 8c2a 203a 5966 a738 7f5c 983a
000003a0: 76fd 543a 98f4 9039 76b0 403a 42d4 ffb9
000003b0: 668d 1439 df0a 6439 4d76 d139 0eb9 c4ba
000003c0: 6ca2 dfb8 aa94 9438 397a 1dba efe2 2039
000003d0: 2983 bab9 6cce 203a 0a02 a2ba 33d0 f23a
000003e0: 6031 a73a 2558 16b9 0592 9639 fde2 59ba
000003f0: 3736 743d de7c 7fb8 fd8a 2939 272d d8b8
0.11226566 -5.94104e-05 3.9199575e-05 -7.659272e-05 -0.00011999953 -0.00044701976 4.5992e-05 0.00028556905
0.0007510067 0.00027367636 -0.00030928056 0.00011208594 1.8181503e-05 0.00018836145 0.00010825208 0.00065692904
0.0016845082 0.00015353833 -0.0003932104 0.0006805515 -0.0008222993 0.00043509493 0.00055162224 0.00035272154
0.000446315 -0.000688716 0.00049992837 -0.0010641229 -0.00059077394 -0.0007474741 0.00091131375 -0.00069768156
0.00012515772 0.0014878297 0.00095395476 -0.0014792796 -0.001666067 0.001891992 0.0013494494 0.0016109905
0.0017380513 0.0007712761 0.046613563 -8.147226e-05 -1.8413439e-05 -4.7351452e-05 -0.00015735475 -0.0004378588
0.0002712538 0.00028751706 0.0003432725 0.0009953568 -0.0003482366 0.0002111074 0.000100986654 -0.00052048755
-0.00050003827 0.00042280686 0.0003177211 -0.000104016304 0.00039368606 -0.0001622157 0.0002713383 -0.00066099345
0.00022572164 -0.00024955856 0.00015411206 -0.0018670352 -0.00029125685 -0.00062979123 -0.00040138772 -0.00037402016
0.0009610319 0.0005055297 0.0011101114 0.00075987005 2.1821184e-06 7.040732e-05 0.0011671592 -0.0011438275
-0.00071081135 0.0010839876 -0.00042248535 0.0008674212 -0.02252708 7.538909e-05 -9.976426e-05 -4.261864e-05
2.0148429e-05 0.0002271414 -0.00047900048 -0.00011399146 0.00037215918 0.00033910037 0.00035564788 0.00020274473
0.000147801 0.00025683755 -0.00028644386 0.0005611819 0.0008685459 9.467565e-05 -0.00017709521 5.961954e-05
-0.0002618264 -0.00038241278 -0.0010758436 0.00085050927 0.0003658833 0.00017231843 -0.0008025819 -0.00040385494
0.0005260401 0.0005362023 -0.00058630016 -9.847862e-05 0.0008865705 -0.0001784704 -0.001605483 0.0005109138
0.00031427713 0.00044060315 0.0007789231 0.00031397975 0.00022684257 0.0005498497 -0.023915974 -0.00010021633
-7.99472e-05 0.00011953432 3.274827e-05 5.1536106e-05 -0.0004899833 -0.00031220587 7.782907e-05 0.0001465463
-0.0005487885 0.00028099527 0.0002472402 -7.2985454e-06 0.0005497588 0.00013464455 -0.00014945741 6.951885e-05
-0.0002021231 0.00011781191 0.000142476 0.0003903087 0.0008762883 -0.00018190655 4.672208e-05 -0.00014740323
8.964146e-05 -0.0015939499 0.00014749437 0.0006016163 0.00034797273 -0.0003767862 3.4531375e-05 -6.6682594e-05
0.00051515835 0.00011117744 -1.9419408e-06 0.00026316283 0.0017939399 0.00092963263 -0.00025236208 -0.0009561828
-0.13753627 -6.697028e-05 -3.4179055e-05 -0.00021237851 0.00043536726 0.00015636653 -0.0005133743 -0.0004009671
0.0006994139 0.0006082427 5.0573795e-05 0.00026713684 0.0011912397 0.00012612704 4.56141e-05 0.00044225523
0.00057235465 -0.0001148911 -3.8301376e-05 0.00022527637 -0.0015311338 2.8134757e-05 0.0001540678 -0.00013193046
-0.0007371976 0.0009046671 0.00037649737 0.000586979 -0.0008766749 4.8049874e-06 0.0004552477 0.00069436035
0.00083785143 5.2444422e-05 0.0004851263 0.00042529602 -0.0003324859 -0.0002761478 0.000727687 -0.0021506562
0.0005570222 -0.000361459 0.1294446 -0.00016063778 -0.000109625726 -0.00025846166 -2.4520019e-05 2.2597193e-05
-0.00045032616 0.00017741496 0.00013701252 6.507536e-05 0.00025248618 0.0002583322 0.00011361905 0.000121282545
0.00023722716 0.00042959984 0.00049486826 5.8763115e-05 0.0003367981 0.00061098556 7.982244e-05 0.0011624246
0.0008124927 0.00027648057 0.00073505135 -0.00048795535 0.00014167055 0.00021747824 0.00039951727 -0.0015008764
-0.00010663722 7.084881e-05 -0.00060072873 0.00015343328 -0.00035574407 0.0006134275 -0.0012360227 0.0018525183
0.0012755804 -0.00014337951 0.00028719023 -0.0008311717 0.059622016 -6.091303e-05 0.00016168873 -0.00010308093

freq_upsampler_imag.bias f4 [42]
00000000: 8716 d63d 18a8 3ebc 0a37 34bc 0250 54bc
00000010: daf8 5b3b 8cd1 bc3b 2a6a 7bbc 098e 4dbc
00000020: 4fcc c93a b957 fabb 5dcd 31bc c503 9fbb
00000030: 29af ab3b 142e e737 5bad 213b cf27 313c
00000040: bcce d73c af9a dc3c 8fe3 c63a 2c48 1d3c
00000050: 868e de3c 17f5 c43b 6958 163c 3e5f 71bb
00000060: ef1e 9f3b 829c a0bb a25f 223c 96df 8b3c
00000070: 98dc 1ebc b867 c13c 11f0 553c a9a0 c03c
00000080: 3c03 703d e0ab 803c 45b9 6a3c 2985 a53c
00000090: b67c 9d3b 2865 133c ff16 0d3b 6746 763c
000000a0: ed6c 16b9 8a4e 79bc
0.104535155 -0.011636756 -0.01099945 -0.0129585285 0.0033565075 0.0057622846 -0.015345136 -0.012546071
0.0015395972 -0.007639852 -0.010852185 -0.0048527443 0.0052393866 2.7558803e-05 0.0024669978 0.010812714
0.026343696 0.026929228 0.0015174019 0.009599727 0.02716757 0.0060106623 0.009176352 -0.003683045
0.0048559825 -0.0049014697 0.009910496 0.017074388 -0.009696148 0.023609027 0.013057725 0.023514109
0.058596835 0.015706956 0.014326398 0.020205097 0.0048061265 0.0089962855 0.00215286 0.015031434
-0.00014345693 -0.015216479
